models/dqn_agent_final.pt (torch, 501155 bytes, 16 tensors)

network.0.weight f4 [256, 73]
0	0x3db74295	0.089482464
1	0x3dc6f3ff	0.09714507
2	0xbce09ee8	-0.027419522
3	0x3ddc30fd	0.10751531
4	0xbcd213a4	-0.025644131
5	0x3cc17a24	0.023617812
6	0xbd696608	-0.05698207
7	0x3d8cc595	0.06873623
8	0x3dd34e5b	0.103176795
9	0xbdafd9d2	-0.08586468
10	0x3dd058b9	0.101731725
11	0x3cb372d4	0.02190534
12	0x3db117bb	0.08647104
13	0x3c81d9dc	0.015850954
14	0x3d672946	0.056435846
15	0xbc875fc4	-0.016525157
16	0x3db8c813	0.09022536
17	0x3c8db824	0.01729972
18	0xbd5fcda5	-0.054639477
19	0x3cf46594	0.029833592
20	0xbd5ce09c	-0.05392514
21	0xbc60e1f8	-0.01372575
22	0xbd42b668	-0.047537237
23	0x3d9f029d	0.0776417
24	0xbdbd3656	-0.092388794
25	0xbd5d0234	-0.05395718
26	0xbd075ee0	-0.033049464
27	0xbd90200c	-0.070373625
28	0x3c34fd48	0.011046715
29	0xbdecbf38	-0.115599096
30	0x3dd879b9	0.10570092
31	0xbdcb9e26	-0.09942274
32	0x3db90e1f	0.090358965
33	0x3c9f9014	0.019477881
34	0xbd1ba9dc	-0.038003787
35	0x3d941f6f	0.07232558
36	0x3c956e0c	0.018240951
37	0x3dc1ab47	0.09456497
38	0x3c51a1b8	0.012794904
39	0xbd1730a8	-0.036911637
40	0x3d00ce9e	0.031447046
41	0xbd0200ea	-0.031739153
42	0x3d49c262	0.049257644
43	0x3dd6027d	0.10449693
44	0x3d8a8f9f	0.06765675
45	0xbd5194ac	-0.051167175
46	0x3d8a5ed9	0.06756372
47	0x3cab8dfc	0.020941727
48	0x3d7374d6	0.059437595
49	0xbd921939	-0.07133717
50	0xbded4805	-0.11586002
51	0xbd3938b0	-0.045220077
52	0xbdb7db08	-0.08977324
53	0x3dc4aef3	0.096036814
54	0x3d0a1516	0.033711515
55	0x3d4692fe	0.048480026
56	0x3d179da2	0.037015565
57	0xbb056f20	-0.0020360425
58	0x3dbb9767	0.09159737
59	0xbdaa4f70	-0.08315933
60	0x3bf17a90	0.007369347
61	0xbda39ae6	-0.07988529
62	0x3d13d2fa	0.036089875
63	0xbd2518d8	-0.040306896
64	0x3d12e56a	0.035863318
65	0xbcc7c210	-0.024384528
66	0x3dc6ce31	0.09707297
67	0xbd8e1220	-0.06937051
68	0xbd8ef4ee	-0.069803104
69	0xbd8ef724	-0.06980732
70	0x3dd798c1	0.10527182
71	0x3d1fc2c2	0.039004095
72	0x3de6a6d9	0.112622924
73	0xbdc5d1a6	-0.09659128
74	0xbdedc0c3	-0.11609032
75	0xbdbb8866	-0.09156875
76	0xbda13e66	-0.0787323
77	0x3d422d2e	0.047406368
78	0x3d2ba96a	0.041909613
79	0x3dc72c3d	0.09725235
80	0xbd779319	-0.060443018
81	0xbda36810	-0.07978833
82	0x3d7e5c06	0.06209948
83	0xbd41c69e	-0.047308557
84	0x3d917ad5	0.071035065
85	0xbce3862c	-0.02777394
86	0x3d891e9b	0.06695291
87	0xbdba3d4c	-0.09093723
88	0xbd71edeb	-0.059064787
89	0x3d12286e	0.035683088
90	0x3ccab2a4	0.024743386
91	0xbcf47468	-0.029840663
92	0x3d8ee0c5	0.06976465
93	0x3da2f351	0.07956565
94	0xbdadd302	-0.08487512
95	0xbd7fefcc	-0.062484547
96	0x3ddb7c03	0.10717013
97	0xbd21c3ec	-0.039493486
98	0xbd29f492	-0.041493006
99	0xbde7eec5	-0.113248385
100	0xbd8944eb	-0.06702598
101	0x3cef8314	0.029237308
102	0xbc7d1c40	-0.01544863
103	0xbdadfebd	-0.08495853
104	0x3b33ec20	0.0027453974
105	0xbda3bc1e	-0.07994865
106	0xbdcb5c64	-0.099297315
107	0xbd83fe76	-0.06445019
108	0xbdd1c9e0	-0.10243583
109	0xbd98a054	-0.07452455
110	0x3def9b45	0.11699537
111	0x3cb517f4	0.022106148
112	0x3d13bb5e	0.03606736
113	0xbddf908f	-0.10916244
114	0xbd9d6dca	-0.07686956
115	0xbd1f923e	-0.038957827
116	0x3c95edc4	0.018301852
117	0xbdd2ead9	-0.102987
118	0xbd4e8f8e	-0.050429873
119	0xbd8f8043	-0.07006886
120	0x39aa0e00	0.00032435358
121	0xbd3262f0	-0.043551385
122	0xbc04e1b8	-0.008110456
123	0xbda26d93	-0.07931056
124	0xbda48774	-0.08033648
125	0xbd8bd771	-0.068282016
126	0xbd2418fa	-0.040062882
127	0xbdbd30db	-0.09237834
128	0x3dc8fb41	0.09813548
129	0xbcbe499c	-0.023228459
130	0x3dce3cc1	0.10070182
131	0x3d155f66	0.036467932
132	0xbdcafa3b	-0.09911009
133	0x3da5e18b	0.080996595
134	0xbd03e792	-0.032203265
135	0xbd37c448	-0.044864923
136	0xbdc6f7d7	-0.097152404
137	0xbdee4cf3	-0.11635771
138	0x3d09295e	0.033486716
139	0xbcd171b8	-0.02556692
140	0x3d3aa446	0.04556682
141	0xbdc4b698	-0.096051395
142	0x3db1f5e1	0.08689476
143	0xbdaff3f0	-0.08591449
144	0xbca58f34	-0.020209886
145	0x3cc843b4	0.024446346
146	0x3d777dce	0.06042271
147	0x3dc18333	0.094488524
148	0x3dda5b71	0.10661972
149	0xbdbe104c	-0.09280452
150	0x3cf14c84	0.02945543
151	0xbd4e33de	-0.050342433
152	0xbc5223d8	-0.012825929
153	0xbdb369cd	-0.08760414
154	0x3dda5543	0.10660794
155	0xbdafed9a	-0.08590241
156	0x3d801bad	0.06255279
157	0x3d287af6	0.04113289
158	0x3d1bc8b6	0.03803321
159	0xbd8197d2	-0.063277856
160	0x3dd9e03d	0.10638473
161	0x3cd2b26c	0.025719844
162	0x3c76ae38	0.015056185
163	0xbdd33cad	-0.10314307
164	0x3d493f2e	0.04913252
165	0xbc8fd704	-0.017558582
166	0xbd5ba002	-0.053619392
167	0x3dcde3c5	0.10053209
168	0x3cd5c374	0.026094176
169	0xbd849eda	-0.06475611
170	0xbd72a4ae	-0.059239082
171	0xbbb72720	-0.005589381
172	0x3d85d6df	0.06535124
173	0xbcf50190	-0.029907972
174	0xbd88c457	-0.06678074
175	0xbd242ad4	-0.040079907
176	0xbdb312f4	-0.087438494
177	0x3d2af846	0.04174068
178	0x3db989a3	0.09059455
179	0xbde1a9dc	-0.11018726
180	0x3cdeaea4	0.027182885
181	0x3d77a786	0.060462497
182	0x3caddbdc	0.021223001
183	0xbd2ab9f2	-0.041681238
184	0x3d7a3826	0.061088704
185	0x3d7bee6a	0.061506666
186	0x3d3342ca	0.043764867
187	0xbca87b5c	-0.020566635
188	0xbcfde448	-0.030992642
189	0x3c4d2598	0.01252117
190	0xbca9604c	-0.0206758
191	0xbd0edca4	-0.034878388
192	0x3d9937d3	0.07481351
193	0x3dcdff91	0.10058511
194	0xbc3dd668	-0.011586763
195	0xbcd6ac2c	-0.026205145
196	0x3adfdb80	0.0017078966
197	0xbbe4fe50	-0.006988324
198	0x3ce681b4	0.02813802
199	0x3d06581a	0.032798864
200	0xbdd9b59b	-0.106303416
201	0xbd30eaba	-0.043192603
202	0x3dc9dbd1	0.0985638
203	0x3d3ac0ba	0.045593955
204	0xbbbec0f0	-0.00582134
205	0xbd908444	-0.07056478
206	0xbd92a65c	-0.07160637
207	0xbdd6b72f	-0.10484158
208	0xbd1c443e	-0.03815102
209	0x3d21e542	0.039525278
210	0x3d98d68d	0.07462797
211	0x3d5d5686	0.054037593
212	0xbdd3e1b2	-0.10345782
213	0xbd902591	-0.07038415
214	0xbc975094	-0.01847104
215	0x3de7dfbb	0.1132197
216	0x3c8ab2a4	0.016930886
217	0xbcf84d2c	-0.030310236
218	0x3d4655d6	0.048421703
219	0xbd369846	-0.044578813
220	0xbd9b25b9	-0.075755544
221	0x3daef445	0.085426845
222	0xbd59fbfa	-0.05321882
223	0xbcc03530	-0.023462862
224	0xbdee7471	-0.11643303
225	0x3da06ca3	0.07833221
226	0x3db59af1	0.08867443
227	0x3d2eb776	0.04265543
228	0xbda72306	-0.08160977
229	0xbdec91dc	-0.11551258
230	0xbdc2adf5	-0.09505836
231	0x3db2be9b	0.08727761
232	0x3d6629b6	0.056192122
233	0x3dc9b577	0.09849065
234	0x3d7b24be	0.061314337
235	0x3cf2aa44	0.029622205
236	0xba963a40	-0.0011461452
237	0xbdb64b23	-0.0890105
238	0xbdcd5e58	-0.1002776
239	0xbde0340d	-0.10947428
240	0x3d443f92	0.047912188
241	0xbd6b5ecd	-0.057463456
242	0xbcc0f610	-0.023554832
243	0xbd89f2e2	-0.06735779
244	0xbcaeb754	-0.021327652
245	0xbda8b59c	-0.08237764
246	0xbd9c9fb9	-0.07647652
247	0x3d1f05ba	0.03882382
248	0xbd0e79e2	-0.034784205
249	0x3d93fa33	0.07225456
250	0xbd19cbc0	-0.037547827
251	0xbdafd616	-0.085857555
252	0xbca92b7c	-0.020650618
253	0xbd68635f	-0.056735393
254	0xbd12ab26	-0.03580775
255	0xbde43190	-0.11142266

network.0.bias f4 [256]
0	0x3dcb4e83	0.09927084
1	0xbd43117e	-0.047624104
2	0x3cb7c624	0.022433348
3	0x3d2953be	0.04133963
4	0x3cdc934c	0.026925705
5	0xbd774056	-0.06036409
6	0xbda35b45	-0.07976393
7	0xbdb9643e	-0.09052323
8	0x3d461a3a	0.048364855
9	0xbc745370	-0.014912471
10	0xbd8b824c	-0.068119615
11	0xbdc19d28	-0.09453803
12	0x3d81753f	0.06321191
13	0x3c8251b4	0.0159081
14	0xbde5afe3	-0.11215188
15	0xbbd174e0	-0.0063921064
16	0xbd02a016	-0.03189095
17	0xbb55e6e0	-0.0032638833
18	0x3ced458c	0.028963827
19	0x3d270216	0.040773474
20	0xbde1543c	-0.110023946
21	0x3c8bb1cc	0.017052554
22	0x3d77cd22	0.060498364
23	0xbcdfebb8	-0.02733408
24	0x3db84eff	0.08999442
25	0x3deacdf3	0.11465063
26	0x3d053e2a	0.032529987
27	0x3de608b5	0.112321295
28	0x3d4bd01e	0.049759023
29	0xbda02629	-0.078197785
30	0x3d95d6f3	0.07316389
31	0xbd4c5dba	-0.049894072
32	0xbdac062e	-0.08399616
33	0xbdd816fd	-0.1055126
34	0x3c28f038	0.010311179
35	0x3dd7b521	0.105325945
36	0xbd25195c	-0.040307388
37	0x3c9989cc	0.018742464
38	0x3d1bc2da	0.03802762
39	0x3d9437f9	0.072372384
40	0x3dca71c9	0.09884984
41	0x3d7e4676	0.062078916
42	0xbd2aad8a	-0.041669406
43	0xbb58d520	-0.0033086017
44	0xbde5c903	-0.112199806
45	0xbdb9d48a	-0.09073742
46	0xbd8210b5	-0.06350843
47	0x3d8edd65	0.069758214
48	0x3ca57c2c	0.020200811
49	0xb9c1fd00	-0.00037000328
50	0x3d9e2015	0.07720963
51	0xbc3009d0	-0.010744527
52	0x3db6b10d	0.089204885
53	0x3de1685f	0.11006235
54	0xbdc2a279	-0.095036454
55	0x3dbe5e5d	0.09295342
56	0x3d97bd5b	0.074091636
57	0xbc59ac48	-0.013285704
58	0x3d10113e	0.035172693
59	0xbda11274	-0.07864848
60	0xbd1789e4	-0.036996737
61	0xbd8869b3	-0.066607855
62	0xbda6b793	-0.08140483
63	0xbca0202c	-0.01954659
64	0xbdeee8b7	-0.116654806
65	0xbcb36ed8	-0.02190344
66	0x3d98c565	0.07459525
67	0xbd93e1f0	-0.072208285
68	0xbd1ce1b8	-0.0383012
69	0x3b9bc5d0	0.0047538057
70	0xbd5039a6	-0.050836228
71	0x3c303838	0.010755591
72	0xbddcf8ea	-0.10789664
73	0x3d01743a	0.031604983
74	0x3de048d5	0.109513916
75	0x3bead8c0	0.007166952
76	0x3de991e9	0.11404783
77	0xbdd326f1	-0.10310162
78	0xbd791315	-0.060809214
79	0xbd119dfc	-0.035551056
80	0x3dcce89f	0.100053065
81	0xbddb9134	-0.10721055
82	0xbcae4698	-0.021273896
83	0xbdd6aafd	-0.10481832
84	0x3cb86bcc	0.022512339
85	0xbdd02d68	-0.101649106
86	0xbdc4dc80	-0.096123695
87	0xbd952f24	-0.07284382
88	0xbd38208e	-0.04495292
89	0x3d98344b	0.07431849
90	0x3c9b12ac	0.018929802
91	0xbdd814c7	-0.10550838
92	0x3de2a7c3	0.11067154
93	0xbb1baae0	-0.0023752972
94	0x3d0c0426	0.034183644
95	0xbd778d21	-0.060437325
96	0xbd6207e3	-0.055183303
97	0xbdb38570	-0.087656856
98	0xbdbc7a42	-0.09203006
99	0xbd74f3f8	-0.05980298
100	0x3d844ab7	0.06459563
101	0xbd36725a	-0.044542648
102	0xbdcb6912	-0.0993215
103	0x3d0c7c5e	0.034298293
104	0xbcfbe25c	-0.030747585
105	0xbdabca0f	-0.08388149
106	0x3dc21bcf	0.0947796
107	0xbddfae20	-0.109218836
108	0xbde91d3e	-0.11382531
109	0x3d8a8981	0.06764508
110	0x3d8532a5	0.065038
111	0xbd377ab0	-0.04479474
112	0x3da96de1	0.08272911
113	0xbd9da964	-0.07698324
114	0xbd617204	-0.055040374
115	0xbc8a0544	-0.016848214
116	0xbd20781c	-0.039177045
117	0x3d9afb87	0.07567506
118	0xbddec919	-0.108782
119	0x3dc214a7	0.09476595
120	0x3d894b0d	0.06703768
121	0xbd842808	-0.06452948
122	0xbd7caa40	-0.0616858
123	0x3c95267c	0.018206827
124	0xbc11ce00	-0.008899212
125	0xbdd48d04	-0.10378459
126	0x3dc4196f	0.095751636
127	0x3dbc9b79	0.092093416
128	0x3dbfcf5b	0.09365722
129	0x3d63a2a6	0.055575036
130	0xbda6dd68	-0.08147699
131	0xbd7c4187	-0.06158593
132	0xbd4a672c	-0.0494148
133	0x3d04f9f6	0.032464944
134	0x3d81361d	0.063091494
135	0xbbb52bc0	-0.005528897
136	0xbdebd78f	-0.11515724
137	0xbd97eec4	-0.07418588
138	0xbd6539f6	-0.05596348
139	0xbda15a1e	-0.078785166
140	0x3d76cfe6	0.06025686
141	0x3bab22c0	0.0052226484
142	0xbdab1240	-0.0835309
143	0xbd916a7d	-0.07100389
144	0xbdaf1f6e	-0.085509166
145	0xbda60f36	-0.0810837
146	0x3d33c6aa	0.043890633
147	0xbd7bd686	-0.061483882
148	0xbdcd402f	-0.10022008
149	0x3c0a7d78	0.008452766
150	0xbbe5f740	-0.007018
151	0xbdc6bdbe	-0.09704159
152	0x3d012996	0.0315338
153	0x3c23b1d8	0.009991132
154	0x3c7a7468	0.0152865425
155	0x3d5295a2	0.051412232
156	0xbd71fd71	-0.05907959
157	0xbdd17579	-0.10227484
158	0x3d9af121	0.07565523
159	0x3dd9695f	0.10615801
160	0x3dde9fc3	0.10870316
161	0x3d7fda72	0.062464185
162	0x3ddc5425	0.10758237
163	0x3d07514e	0.033036523
164	0xbdd122e1	-0.10211731
165	0x3d0e98f6	0.034813844
166	0xbdb74bf0	-0.08950031
167	0xbde1cd58	-0.11025494
168	0x3d397fb6	0.04528781
169	0xbd7de7b2	-0.06198854
170	0xbdad2a44	-0.08455327
171	0x3de25e61	0.110531576
172	0x3d18c7a6	0.037299775
173	0x3d4cd8ea	0.050011553
174	0xbd0f1594	-0.034932688
175	0x3d3345da	0.043767788
176	0xbaf17880	-0.0018422753
177	0xbcdfefec	-0.027336083
178	0xbcb6f104	-0.022331722
179	0x3db1e3b1	0.08686007
180	0xbda3e543	-0.080027126
181	0xbd13cd50	-0.036084473
182	0x3daf085b	0.085465156
183	0xbbb2aed0	-0.005452968
184	0x3d6b5b6e	0.05746024
185	0xbd4b317e	-0.049607746
186	0x3da0d2bd	0.07852695
187	0xbdaa63de	-0.083198294
188	0xbd8087a0	-0.062758684
189	0xbdd2da0e	-0.10295497
190	0xbdbf74be	-0.09348439
191	0x3d96ed7f	0.073695175
192	0x3d9afccf	0.07567751
193	0x3d807b69	0.062735386
194	0x3d6d4ba6	0.057933472
195	0x3da29719	0.07938976
196	0x3d91cc85	0.07119087
197	0x3d8d0fc1	0.068877704
198	0xbd6b5a97	-0.05745944
199	0x3db39c4b	0.08770045
200	0x3d9f2bc7	0.07772022
201	0x3d1486a2	0.03626121
202	0xbcacb7dc	-0.021083765
203	0x3dd18c7d	0.10231874
204	0xbbfede40	-0.007777959
205	0xbddf6d50	-0.109095216
206	0xbd341e1a	-0.04397402
207	0xbb43f0c0	-0.0029898137
208	0x3d63e3ae	0.055637054
209	0x3d00f36a	0.031482138
210	0x3ca5de24	0.020247526
211	0x3dcbf477	0.09958737
212	0x3d9cb637	0.07651942
213	0xbd8827bd	-0.066482045
214	0xbd2ddae6	-0.042445086
215	0xbc36c500	-0.011155367
216	0xbbda9090	-0.006670065
217	0xbdb6c263	-0.08923795
218	0xbd007290	-0.031359255
219	0x3db59041	0.08865405
220	0xbde8631e	-0.1134703
221	0x3c8a232c	0.016862474
222	0x3cc22d94	0.023703374
223	0xbd19221a	-0.037386037
224	0xbd2312d2	-0.03981287
225	0xbd7048a5	-0.05866303
226	0xbdd9d79f	-0.106368296
227	0xbdd82776	-0.105544016
228	0x3d7ee416	0.06222924
229	0xbb6612e0	-0.0035106465
230	0xbba6e310	-0.005092986
231	0xbc9d3f1c	-0.019195132
232	0xbde2b778	-0.1107015
233	0xbc9c6e10	-0.01909545
234	0xbddd0cc8	-0.107934535
235	0x3d6c3866	0.057670973
236	0xbd284014	-0.041076735
237	0xbd22e9ee	-0.039773874
238	0x3d28d9ae	0.04122322
239	0xbda44d21	-0.08022524
240	0xbd9bfb9c	-0.0761635
241	0xbd85048a	-0.064950064
242	0xbcd83b8c	-0.026395582
243	0xbd97734e	-0.073950395
244	0xbdeecdf9	-0.1166038
245	0x3d5660c6	0.052338384
246	0x3d82534d	0.063635446
247	0xbd45d6ec	-0.04830067
248	0xbdb85346	-0.09000258
249	0x3da24149	0.079226084
250	0xbd918dff	-0.07107162
251	0xbdb9dc65	-0.0907524
252	0xbdd83064	-0.10556105
253	0x3ced792c	0.028988443
254	0x3cd9697c	0.026539557
255	0x3de42a6f	0.11140906

network.3.weight f4 [128, 256]
0	0xbcc9490c	-0.024570964
1	0xbd1ff040	-0.03904748
2	0x3d7a1bec	0.061061785
3	0x3d2ff776	0.042960607
4	0xbd629636	-0.055319034
5	0xbd6fc72c	-0.058539554
6	0x3cbe9b3c	0.02326738
7	0xbcff09f0	-0.031132668
8	0x3c327678	0.010892503
9	0xbb866fa0	-0.004102662
10	0xbc9f4738	-0.01944314
11	0x3d5a8880	0.053352833
12	0x3ca7e420	0.02049452
13	0x3c9a1544	0.018808968
14	0xbd4025a8	-0.04691091
15	0xbcb3ba1c	-0.02193933
16	0x3cef52b8	0.029214248
17	0x3d0cb784	0.0343547
18	0x3bd9c970	0.0066463277
19	0xbd7abc4a	-0.061214723
20	0xbd09b5ee	-0.033620767
21	0x3d7c4290	0.061586916
22	0x3d4fdf98	0.050750345
23	0x3d06ce5e	0.03291165
24	0xbd1576bc	-0.036490187
25	0xbd0a1c96	-0.033718668
26	0x3cb93558	0.022608444
27	0xbd565524	-0.05232729
28	0xbbef2300	-0.0072978735
29	0x3cc41bb4	0.023938991
30	0x3cc9d318	0.02463679
31	0x3cfbd7cc	0.030742548
32	0x3b7501e0	0.003738515
33	0x3d2bce68	0.04194489
34	0xbd7a55b2	-0.06111688
35	0xbd04193a	-0.03225062
36	0xbc9dd808	-0.01926805
37	0x3d15ae26	0.036543034
38	0xbd47d852	-0.048790284
39	0x3d3cc9dc	0.046090946
40	0xbd144b78	-0.036204785
41	0xbc9aab50	-0.018880516
42	0x3d3d700a	0.046249427
43	0x3d7a99b6	0.061181746
44	0x3c998fe8	0.018745378
45	0xbc5ac818	-0.01335337
46	0x3d351b88	0.04421571
47	0xbb464a00	-0.003025651
48	0x3d1a464c	0.037664697
49	0x3ccf5d94	0.025313176
50	0xbab29fc0	-0.0013627931
51	0x3d7194d4	0.058979824
52	0x3cf6d498	0.03013067
53	0x3d7068ea	0.058693804
54	0x3d71c328	0.059024006
55	0x3c45f538	0.0120823905
56	0xbcef9070	-0.029243678
57	0xbcac2418	-0.021013305
58	0xbc22ed78	-0.009944312
59	0xbca7172c	-0.020396791
60	0x3bd5aef0	0.0065210983
61	0x3d78deda	0.060759403
62	0x3d28a016	0.041168295
63	0x3c8c3340	0.017114282
64	0x3d051148	0.032487184
65	0xbd108926	-0.035287045
66	0x3ccdd494	0.02512578
67	0x3d603f1c	0.054747686
68	0x3ca59818	0.020214126
69	0x3a7c2680	0.0009618774
70	0x3d4ebb62	0.05047167
71	0xbd528380	-0.05139494
72	0x3d1084ca	0.035282888
73	0xbc4641f0	-0.012100682
74	0xbd6bf938	-0.05761072
75	0x3d0f8656	0.035040222
76	0xbc4cc710	-0.012498632
77	0xbc660ab0	-0.014040634
78	0xbcea0ed0	-0.028571516
79	0xbca90f44	-0.020637162
80	0xbc1d6810	-0.00960733
81	0xbd7b5f5e	-0.061370246
82	0x3cf8fdf8	0.03039454
83	0x3c043680	0.008069634
84	0x3cbe2340	0.023210168
85	0x3d7ebb78	0.062190503
86	0xbc6481b0	-0.013946936
87	0xbd19a35a	-0.0375093
88	0xbd263bee	-0.040584497
89	0xbc0d1f20	-0.008613378
90	0xbc475688	-0.012166627
91	0x3cb64f84	0.022254713
92	0x3b919d00	0.0044437647
93	0x3caa97d4	0.02082435
94	0xbd027486	-0.031849407
95	0xbd5c6b1a	-0.053813078
96	0x3b18bd20	0.0023306087
97	0x3c589860	0.013219923
98	0xbcf4e954	-0.029896416
99	0xbcb6b748	-0.022304192
100	0xbc3494d0	-0.011021808
101	0xbd64e882	-0.0558858
102	0x3d6ef0b4	0.05833502
103	0x3d386fea	0.045028605
104	0xbd3ae798	-0.04563102
105	0xbd73f24e	-0.05955725
106	0x3d5ee6b6	0.05441924
107	0x3d548c98	0.051891893
108	0xbd65e66a	-0.056127943
109	0x3c591158	0.013248764
110	0xbd229eca	-0.039702214
111	0xbd3c6ffe	-0.04600524
112	0xbd321538	-0.043477267
113	0x3b006700	0.0019592643
114	0x3d6c6c70	0.0577206
115	0x3ceeac84	0.029134996
116	0xbd6c6854	-0.057716683
117	0x3d0a0872	0.03369946
118	0x3d6859fa	0.056726433
119	0x3d34a966	0.044106863
120	0x3d6c83d8	0.057742923
121	0xbd14dac8	-0.03634146
122	0xbd0247bc	-0.031806692
123	0x3d0e4094	0.034729555
124	0xbd49a8a2	-0.049233086
125	0xbc90cb80	-0.017675161
126	0x3d37c2e4	0.044863597
127	0x3c9d4928	0.019199923
128	0xbc88fae0	-0.016721189
129	0x3cccc934	0.024998285
130	0xbcef6408	-0.029222503
131	0xbd01b9f0	-0.031671464
132	0x3c999f98	0.018752858
133	0xbcf71b44	-0.030164368
134	0x3d322484	0.043491855
135	0x3ce44370	0.027864188
136	0x3d1b77a4	0.037955895
137	0x3d37c946	0.044869684
138	0x3c012ef8	0.007884733
139	0xbcbd08e8	-0.023075536
140	0xbd570d14	-0.052502707
141	0xbc944c94	-0.018102922
142	0xbd5752aa	-0.05256907
143	0x3d1b99fa	0.03798864
144	0x3b9f6d10	0.004865296
145	0xbcd97d14	-0.0265489
146	0xbafed080	-0.00194408
147	0x3d38bb08	0.045100242
148	0xbce04ca8	-0.027380303
149	0x3c456bb0	0.0120496005
150	0x3bf64550	0.007515587
151	0xbc0ab138	-0.008465104
152	0xbc6e0cb8	-0.0145294
153	0x3cbfcd2c	0.023413263
154	0xbca54364	-0.020173736
155	0xbd523bdc	-0.051326618
156	0x3c672170	0.014107093
157	0xbd14e780	-0.036353588
158	0xbd03387c	-0.03203629
159	0x3ae67680	0.0017582923
160	0x3cf65244	0.030068524
161	0xbc94913c	-0.01813566
162	0xbd19c1c6	-0.037538312
163	0x3cec95f4	0.028880097
164	0xbd1e277e	-0.03861188
165	0x3c5d1020	0.013492614
166	0x3c91b170	0.017784804
167	0xbac22800	-0.0014812946
168	0xbc83995c	-0.016064338
169	0xbc09d168	-0.008411743
170	0xbd10d746	-0.03536155
171	0x3d285cd2	0.041104145
172	0xbbb6f7c0	-0.0055837333
173	0xbcd6093c	-0.02612745
174	0xbd0c4558	-0.03424582
175	0x3ce244e4	0.02762074
176	0xbd1dfb64	-0.038569823
177	0x3cd3734c	0.025811814
178	0x394c0e00	0.00019460171
179	0xbd6c6820	-0.05771649
180	0x3d23913c	0.03993343
181	0x3cc9b42c	0.024622045
182	0x3cd82a50	0.026387364
183	0xbce5a28c	-0.02803161
184	0xbd5ea086	-0.054352306
185	0x3cf15968	0.029461578
186	0xbd477a2a	-0.04870049
187	0x3cf2d764	0.029643722
188	0x3d5dc640	0.054144144
189	0xbbfe6670	-0.0077636763
190	0xbd4f744e	-0.050648026
191	0x3d400ac6	0.046885274
192	0xbd753ab2	-0.05987043
193	0xbca98d00	-0.020697117
194	0xbd3de28c	-0.04635863
195	0x3cd93438	0.026514158
196	0x3d6770e2	0.056504138
197	0xbd23b900	-0.03997135
198	0xbd12f3ec	-0.035877153
199	0x3d4f986c	0.05068247
200	0x3cfb5c04	0.030683525
201	0x3d333080	0.043747425
202	0xbd378044	-0.044800058
203	0x3d6f4556	0.058415733
204	0xbcb9ebc4	-0.02269543
205	0xbd0d8416	-0.034549795
206	0xbcab25ac	-0.020891987
207	0x3b845690	0.0040386394
208	0x3d157122	0.036484845
209	0xbc82f148	-0.015984192
210	0xbd2ce660	-0.04221189
211	0x3c25a8e8	0.010111071
212	0xbd7677ee	-0.060172968
213	0xbd4bea3c	-0.04978393
214	0x3c5c45c8	0.0134443715
215	0x3d63dc7a	0.055630185
216	0xbd13f358	-0.036120743
217	0x3d111b9e	0.03542673
218	0xbd1f66f6	-0.03891655
219	0xbcafd2f8	-0.021462902
220	0x3d7de650	0.06198722
221	0x3c8b02a8	0.01696904
222	0xbcd81cb0	-0.026380867
223	0xbce680d0	-0.028137594
224	0x3c613088	0.013744481
225	0x3d1f1e72	0.038847394
226	0x3d407bea	0.046993174
227	0x3b9663b0	0.0045895204
228	0xbd013352	-0.031543083
229	0x3cff4068	0.031158641
230	0xbd565816	-0.0523301
231	0xbb0377a0	-0.0020060316
232	0xbd6be9d6	-0.05759605
233	0xbc56f348	-0.013119526
234	0xb9c1d900	-0.00036973506
235	0x3d51a8d8	0.051186413
236	0x3c6a8248	0.014313288
237	0xbd2ccb7e	-0.042186253
238	0x3ceb0a9c	0.028691582
239	0x3ad74140	0.0016422644
240	0xbd22d522	-0.03975404
241	0xbd5889de	-0.052865855
242	0x3c539a80	0.012915254
243	0xbd131936	-0.035912715
244	0xbcc3fc50	-0.023924023
245	0xbd032a54	-0.03202279
246	0xbd3ea526	-0.046544217
247	0xbd25a5c6	-0.040441297
248	0xbc183438	-0.009289794
249	0xbac95b00	-0.0015362203
250	0x3d2cd67a	0.04219673
251	0xbd5218ee	-0.051293306
252	0x3d5b12ee	0.05348485
253	0x3d6c64d4	0.057713345
254	0xbd778ae8	-0.060435206
255	0x3d24d896	0.040245615

network.3.bias f4 [128]
0	0x3d66441e	0.056217305
1	0x3d351976	0.044213735
2	0x3d6d1b36	0.05788728
3	0x3d2c9796	0.04213675
4	0xbd405aaa	-0.046961464
5	0x3d3ed172	0.04658646
6	0x3d574c3e	0.052562945
7	0x3d18c47c	0.037296757
8	0xbb5b01c0	-0.003341779
9	0xbd1a9148	-0.037736207
10	0xbd6675a8	-0.05626455
11	0x3d5b2268	0.05349961
12	0x3c8e92f0	0.01740405
13	0xbd50d19e	-0.050981157
14	0x3d290b34	0.04127045
15	0x3d684432	0.05670566
16	0x3c42ec10	0.011897102
17	0x3d1726b2	0.036902137
18	0xbd7db3b4	-0.061938956
19	0xbd15be80	-0.036558628
20	0xbd6f36bc	-0.05840181
21	0xbd6b1f98	-0.057403177
22	0x3b961da0	0.0045811683
23	0xbbfaf530	-0.007658623
24	0xbc972cf4	-0.018454053
25	0x3b239a40	0.0024963766
26	0x3d054e2a	0.032545246
27	0x3d4b6576	0.049657308
28	0xbcfdd9ec	-0.030987702
29	0x3d185a66	0.037195586
30	0xbcb5b8e0	-0.022182882
31	0x3d038a94	0.03211458
32	0xbd0e8256	-0.034792267
33	0xbd3b1424	-0.045673504
34	0x3c0e6a40	0.008692324
35	0xbc351f20	-0.011054784
36	0x3b51d540	0.0032017976
37	0xbc473c38	-0.012160353
38	0xbc7a91b8	-0.015293531
39	0xbd380cbe	-0.044934027
40	0x3d6f813c	0.058472857
41	0xbd21cb56	-0.039500557
42	0x3d740e5a	0.059584
43	0xbd065bfa	-0.03280256
44	0x3d228802	0.03968049
45	0xbd4e42f8	-0.050356835
46	0x3d63fa5a	0.055658676
47	0x3d71b89c	0.059013948
48	0x3d7e8524	0.06213869
49	0x3d5a854a	0.05334977
50	0x3d7ae274	0.06125112
51	0xbd2e6064	-0.042572394
52	0xbc558898	-0.013033055
53	0x3cfa251c	0.030535273
54	0x39c11300	0.00036825985
55	0xbd4bca6a	-0.049753584
56	0xbd569c7a	-0.05239532
57	0x3d7d0c68	0.06177941
58	0x3d7aa3ca	0.061191358
59	0x3c47a350	0.012184933
60	0x3d0c646c	0.034275457
61	0x3d7501ea	0.05981628
62	0xbd3708b4	-0.044686034
63	0xbd48b910	-0.049004614
64	0x3d475146	0.048661493
65	0x3d7bdf72	0.06149239
66	0xbd2b4be4	-0.04182042
67	0xbd75c000	-0.05999756
68	0x3c83ad78	0.016073927
69	0xbca3dde0	-0.02000326
70	0xbd6a9ed4	-0.057280377
71	0xbd22e69a	-0.0397707
72	0xbd6780ce	-0.056519322
73	0x3d182dce	0.037153058
74	0xbcecd054	-0.028907932
75	0x3d2e4bcc	0.042552754
76	0xbbb71450	-0.0055871382
77	0xbcf00fbc	-0.029304378
78	0x3acd3800	0.0015656948
79	0x3d7d48d0	0.061837018
80	0x3d69e7cc	0.057105824
81	0xbcff04cc	-0.031130217
82	0xba4ea380	-0.000788264
83	0x3d2bc880	0.04193926
84	0x3d70f298	0.058825105
85	0x3d2a12e6	0.04152193
86	0xbcd72cc8	-0.02626647
87	0x3d1439c8	0.036187917
88	0x3c0a5220	0.008442432
89	0x3d25391a	0.04033766
90	0xbbfd1330	-0.0077232346
91	0x3c4c1568	0.0124562755
92	0xbd6dea78	-0.058084935
93	0xbd36056c	-0.044438764
94	0x3d3c273e	0.04593586
95	0xbd29319c	-0.041307077
96	0xbd403278	-0.04692313
97	0xbd375a3a	-0.04476378
98	0x3c6d8870	0.014497861
99	0x3bf47b40	0.0074609816
100	0x3cf90b18	0.030400798
101	0x3d3fc288	0.04681638
102	0xbcbdb08c	-0.023155473
103	0x3c885838	0.016643628
104	0x3d75a63a	0.05997298
105	0x3aadd340	0.001326181
106	0xbbd54690	-0.006508656
107	0x3d245dae	0.040128402
108	0xbc0daef0	-0.008647665
109	0xbce2eef0	-0.027701825
110	0xbd7ee8ea	-0.062233843
111	0x3ba60d30	0.00506749
112	0x3c9598b4	0.018261291
113	0xbd248506	-0.040165924
114	0xbc0a01e0	-0.008423299
115	0xbcad4424	-0.021150656
116	0x3d024b46	0.031810068
117	0x3b474a80	0.0030409396
118	0xbd46dfa2	-0.048553117
119	0x3d6fe1cc	0.058564946
120	0x3d2bc484	0.04193546
121	0xbd34c448	-0.0441325
122	0x3d3b176a	0.045676626
123	0xbc535d40	-0.0129006505
124	0x3c3136d0	0.010816291
125	0x3c952e8c	0.018210672
126	0xbd3b8f9a	-0.045791246
127	0xbd51e3d6	-0.051242672

network.6.weight f4 [64, 128]
0	0x3c105290	0.008808747
1	0x3c91b778	0.01778768
2	0x3d7ab046	0.061203264
3	0xbc86f97c	-0.016476385
4	0x3da3582f	0.07975804
5	0x3da7a435	0.08185617
6	0x3da8f239	0.08249325
7	0x3d013918	0.03154859
8	0xbcfa75dc	-0.030573778
9	0xbc4ebbd8	-0.012618028
10	0x3bd943b0	0.0066303834
11	0x3da7907f	0.08181857
12	0x3b96bf40	0.0046004355
13	0xbd8ec14e	-0.06970464
14	0xbc39e948	-0.0113471225
15	0xbd60eaa8	-0.054911286
16	0xbd6f2132	-0.058381267
17	0xbcf32806	-0.02968217
18	0x3d84167d	0.06449602
19	0xbdaa42c6	-0.08313517
20	0x3c4e9160	0.012607902
21	0x3d74a22e	0.05972498
22	0xbd5dd559	-0.054158542
23	0x3c979644	0.01850427
24	0x3d7ff0ee	0.062485628
25	0x39b7d200	0.00035060942
26	0x3c0e1948	0.00867302
27	0xbccae184	-0.024765737
28	0xbd1c286a	-0.03812448
29	0x3aa52040	0.0012598112
30	0xbc7fd778	-0.015615337
31	0x3ce9b5b4	0.028529026
32	0x3d9cb12b	0.076509796
33	0xbd8aa748	-0.067701876
34	0x3da1f98b	0.07908925
35	0x3d79f51e	0.061024778
36	0xbdac31a5	-0.084079064
37	0xbda677fd	-0.08128355
38	0x3d6a4552	0.057195015
39	0xbb048ce0	-0.002022557
40	0x3d805dc3	0.06267884
41	0x3d8bd221	0.06827188
42	0xbc81aca8	-0.0158294
43	0xbd90e138	-0.07074207
44	0x3c113ce0	0.008864611
45	0xbcea31c6	-0.028588187
46	0xbc6fe4f8	-0.014641993
47	0x3b1557e0	0.0022787973
48	0x3db4a103	0.08819773
49	0xbd65d135	-0.05610772
50	0x3b9beef0	0.004758708
51	0x3d43e452	0.047825165
52	0xbd1c6548	-0.038182527
53	0xbdae4a73	-0.08510294
54	0xbd25e776	-0.04050394
55	0xbd1aec67	-0.037823107
56	0x3da89071	0.08230675
57	0xbc699a38	-0.01425796
58	0x3d3727ce	0.044715695
59	0x3d8fa789	0.07014377
60	0xbd54e5db	-0.05197702
61	0xbc8acac0	-0.016942382
62	0xbcff4664	-0.031161495
63	0x3cfc47b0	0.030795902
64	0x3d780626	0.06055274
65	0xbd7f7944	-0.062371507
66	0xbd71dc42	-0.059047945
67	0xba6e5800	-0.00090920925
68	0xbcd8e05e	-0.026474174
69	0x3daad1df	0.08340811
70	0x3d928e75	0.07156078
71	0xbd121eb6	-0.03567382
72	0x3d782462	0.060581572
73	0xb969e600	-0.00022306293
74	0x3d5afdba	0.05346463
75	0xbc4eef48	-0.012630291
76	0x3d7adf16	0.061247908
77	0xbbe3cd60	-0.006951973
78	0x3da6ab4d	0.08138142
79	0xbccad3f4	-0.02475927
80	0x3d6a8bd2	0.05726225
81	0x3da1ea0f	0.07905971
82	0xbd575ea9	-0.05258051
83	0xbd6cf44b	-0.057850163
84	0x3bc7efc0	0.0061015785
85	0xbd3df504	-0.046376243
86	0x3c6f9ba0	0.014624506
87	0x3c9fb800	0.019496918
88	0x3d362af6	0.044474564
89	0x3c08b7c8	0.008344598
90	0xbd54fbee	-0.05199807
91	0xbd17dca1	-0.037075642
92	0x3d7ded92	0.061994143
93	0x3da1c245	0.07898382
94	0x3d270a22	0.040781148
95	0xbcc78b6c	-0.024358474
96	0x3d5620e6	0.05227747
97	0xbd551efa	-0.052031495
98	0x3d8c6d3b	0.068567716
99	0xbcad20e0	-0.02113384
100	0xbc6d2990	-0.014475241
101	0x3dae0b59	0.08498258
102	0xbda249b9	-0.07924218
103	0x3cf8e724	0.030383654
104	0xbccb4420	-0.024812758
105	0x3c8966c4	0.016772635
106	0x3c413830	0.011793181
107	0xbd02d6c4	-0.031943098
108	0xbc083710	-0.008313909
109	0xbb0246c0	-0.0019878596
110	0xbb3e8b00	-0.002907455
111	0x3db3b55d	0.08774827
112	0xb9876400	-0.00025823712
113	0xbd2efdc1	-0.042722467
114	0x3d0d33dc	0.034473285
115	0xbd6d4698	-0.05792865
116	0xbd1f5446	-0.03889873
117	0x3b020a00	0.0019842386
118	0x3d2eb1ea	0.04265014
119	0x3c26ab70	0.01017271
120	0x3c992704	0.018695362
121	0xbcad1cd0	-0.021131903
122	0x3da4a945	0.08040098
123	0xbd8b3a57	-0.06798237
124	0xbd853c69	-0.06505663
125	0xbd8bc656	-0.06824939
126	0x3d42c042	0.047546633
127	0x3cffff04	0.03124953
128	0x3c97b6c4	0.018519767
129	0x3710c000	8.627772e-06
130	0xbd357f80	-0.044311047
131	0xbd9accca	-0.07558592
132	0x3d76a3fe	0.06021499
133	0x3d655d52	0.0559972
134	0x3d409392	0.047015734
135	0xbcdd1ad6	-0.026990335
136	0xbd96871c	-0.07349989
137	0xbce61840	-0.028087735
138	0xbda85cca	-0.08220823
139	0xbca36250	-0.01994434
140	0x3da3cea7	0.079984
141	0x3c350238	0.011047892
142	0x3db405e3	0.08790185
143	0xbc9eef98	-0.019401357
144	0xbd4307c2	-0.04761482
145	0xbd8f1527	-0.06986456
146	0x3db00d1b	0.0859625
147	0xbda8c38d	-0.08240423
148	0xbd5d4c66	-0.054027937
149	0xbd13d78c	-0.036094233
150	0x3cf27970	0.029598922
151	0x3d725a9e	0.05916845
152	0x3d1e0146	0.038575433
153	0x3bb2af70	0.0054530427
154	0x3da6dab7	0.08147185
155	0x3d5ea416	0.054355703
156	0xbd2a92df	-0.041643973
157	0xbb188f20	-0.0023278669
158	0x3d988c29	0.074486084
159	0xbd56da66	-0.052454375
160	0x3a89a3c0	0.0010501072
161	0xbc2a7b20	-0.010405332
162	0xbdad5d48	-0.084650576
163	0x3d6740ee	0.056458406
164	0x3d3eb7ba	0.046561934
165	0x3d3ddf16	0.04635533
166	0xbd37954a	-0.044820108
167	0x3daafacb	0.08348616
168	0xbd5de517	-0.054173555
169	0xbd3c6d25	-0.046002526
170	0xbda2b9e0	-0.07945609
171	0x3d9e68e3	0.07734849
172	0x3d3aba42	0.045587786
173	0xbcbc9d00	-0.023024082
174	0xbd95e89a	-0.07319756
175	0x3c569b78	0.01309859
176	0xbdaacd6f	-0.083399646
177	0x3d861e5b	0.065487586
178	0xbd81410e	-0.06311236
179	0x3cf87628	0.030329779
180	0x3b7623e0	0.0037558004
181	0x3d9339a9	0.07188732
182	0xbd1d4134	-0.03839226
183	0xbc0f46a8	-0.008744873
184	0xbd89f7a1	-0.067366846
185	0xbd2bcdcf	-0.04194432
186	0x3daee4df	0.085397474
187	0x3da320eb	0.07965263
188	0x3d0ee33e	0.034884684
189	0xbd955e09	-0.072933264
190	0x3d3c9052	0.046036072
191	0xbdb22a0a	-0.086994246
192	0xbd78b031	-0.060714904
193	0xbd9a6667	-0.07539063
194	0xbd022490	-0.03177315
195	0xbd03caa3	-0.03217567
196	0xbd85c5de	-0.06531881
197	0xbd633e83	-0.055479538
198	0xbd232209	-0.03982738
199	0xbd21fc63	-0.039547335
200	0x3d1fa15a	0.038972236
201	0x3d876421	0.06610895
202	0x3c958444	0.018251546
203	0x3c595e08	0.013267048
204	0x3d90f77f	0.07078456
205	0xbc392660	-0.011300653
206	0xbd5ee508	-0.05441764
207	0xbd9422e4	-0.07233217
208	0xbd83c5c4	-0.06434205
209	0x3cb5ebcc	0.022207163
210	0x3d8d3265	0.068943776
211	0xbc283c98	-0.010268353
212	0xbc5e53b0	-0.013569757
213	0x3d99ee7f	0.07516193
214	0xbd3452b1	-0.044024173
215	0x3d8d4367	0.068976216
216	0xbd76a41b	-0.060215097
217	0x3d9be9c1	0.076129444
218	0xbdb2b677	-0.08726209
219	0xbd7dbdbe	-0.06194853
220	0x3d10d26c	0.035356924
221	0x3d53f7fe	0.051750176
222	0xbd15ea9b	-0.03660069
223	0xbd17cbbd	-0.037059534
224	0x3d98ce03	0.074611686
225	0x3d64d686	0.055868648
226	0xbdb28af6	-0.08717911
227	0x3d8ee8bf	0.069779865
228	0x3c931d08	0.01795818
229	0xbd9083d9	-0.07056398
230	0xbc2cd1d8	-0.0105480775
231	0xbb352460	-0.002764009
232	0x3d09fbd2	0.03368742
233	0xbd8eff0e	-0.069822416
234	0xbcd7fbdc	-0.026365213
235	0xbcc0cb3c	-0.02353441
236	0xbcee855e	-0.029116329
237	0x3cc0d4d4	0.023538984
238	0x3c278a00	0.010225773
239	0x3d00ddae	0.03146141
240	0xbc8df86c	-0.01733037
241	0xb98ca700	-0.00026827306
242	0x3cb027a0	0.02150327
243	0x3d2f9ada	0.042872287
244	0xbd4e5bce	-0.05038052
245	0xbd0df7e0	-0.03466022
246	0x3cedecd4	0.029043593
247	0xbd4be06f	-0.049774583
248	0x3d578ece	0.052626424
249	0x3c71f5f0	0.014768109
250	0x3d9ca383	0.07648375
251	0x3d9712d9	0.07376642
252	0xbd1553f9	-0.036457036
253	0x3d48a48a	0.04898504
254	0x3c26b1b0	0.0101742
255	0x3d0a1dde	0.03371989

network.6.bias f4 [64]
0	0x3cb0a2bc	0.021561973
1	0xbc4d4f08	-0.01253105
2	0xbd0ead89	-0.034833465
3	0x3b3e80a0	0.0029068366
4	0xbd085c5f	-0.033291217
5	0xbcfeda9a	-0.031110097
6	0x3c2cb928	0.010542192
7	0xbcf3644e	-0.029710915
8	0x3c1eed40	0.0097001195
9	0xbd7539ea	-0.059869684
10	0x3cbe7490	0.02324894
11	0xbd9780a3	-0.073975824
12	0x3d971ccb	0.07378539
13	0x3db35dd5	0.087581314
14	0x3c7fe6b0	0.015618965
15	0x3d830e01	0.063991554
16	0xb9e2e600	-0.00043277442
17	0xbce3f6ea	-0.027827699
18	0x3d2ffa3e	0.04296326
19	0x3c8ae7a4	0.016956158
20	0x3d4dcdfa	0.050245263
21	0xbcf4d7c2	-0.029888038
22	0x3da91399	0.08255691
23	0x3d4046a2	0.04694236
24	0xbdb16cea	-0.08663352
25	0x3b17be00	0.002315402
26	0x3d6dc182	0.05804587
27	0xbcd04e00	-0.025427818
28	0x3d10bc62	0.035335906
29	0x3bd7fe80	0.006591618
30	0xbd78fb74	-0.06078668
31	0xbd4e9fc3	-0.05044533
32	0x3cf0cebc	0.029395454
33	0xbdb00987	-0.08595567
34	0x3d8e88e3	0.06959703
35	0x3d7625ca	0.060094632
36	0xbca060d0	-0.019577414
37	0xbda14072	-0.0787362
38	0x3d39e212	0.045381613
39	0xbcc82f48	-0.024436608
40	0x3cba1e98	0.022719666
41	0xbd7b0246	-0.061281465
42	0xbd2aede1	-0.041730765
43	0xbd4f7089	-0.05064443
44	0xbc6de6a8	-0.014520325
45	0x3d516b2e	0.051127605
46	0xbc226d08	-0.00991369
47	0x3bc77ee0	0.0060881227
48	0xbdb28d7c	-0.08718392
49	0x3d6b1172	0.057389684
50	0xbd35b0ad	-0.044357944
51	0x3d60b286	0.054857753
52	0xbd8b6484	-0.06806281
53	0xbad23700	-0.001603812
54	0x3d764786	0.060126804
55	0x3da465cf	0.08027231
56	0x3d986d1b	0.07442685
57	0xbd87621c	-0.0661051
58	0x3d1c547e	0.038166516
59	0x3cc95d90	0.024580747
60	0x3d37415e	0.044740073
61	0x3d19988a	0.03749899
62	0xbd3df3d5	-0.046375114
63	0x3dae6b63	0.08516576

network.9.weight f4 [26, 64]
0	0x3dfff4c8	0.1249786
1	0x3d389d7c	0.045072064
2	0xbd8c60a8	-0.06854373
3	0xbcbdc230	-0.023163885
4	0xbcce6c48	-0.025198117
5	0xbc1aec00	-0.009455681
6	0x3c99adf0	0.018759698
7	0x3d7355e0	0.05940807
8	0xbcb479b0	-0.022030681
9	0xbdb0a74e	-0.08625661
10	0xbd9e427c	-0.07727525
11	0x3a48b000	0.00076556206
12	0x3ddae4e4	0.10688189
13	0xbdbf9168	-0.09353906
14	0xbd0d5f84	-0.03451492
15	0xbd9f8122	-0.07788302
16	0xbde3c89e	-0.11122249
17	0xbcfe6950	-0.031056076
18	0x3ce61dc8	0.028090373
19	0xbd045334	-0.03230591
20	0xbd9149d4	-0.0709416
21	0x3cdb4790	0.026767522
22	0xbd4fa38c	-0.05069308
23	0x3def408a	0.11682232
24	0x3d00efd8	0.031478733
25	0x3df6488c	0.12025556
26	0xbd27a648	-0.040930063
27	0x3d1e4274	0.038637593
28	0x3bb84480	0.0056234
29	0xbd63e344	-0.05563666
30	0x3b51e7c0	0.0032029003
31	0xbdd58d76	-0.10427372
32	0xbd696f78	-0.05699107
33	0x3d78b77c	0.06072186
34	0xbdf76c6a	-0.12081225
35	0xbd4e42f4	-0.05035682
36	0xbda70cc2	-0.0815673
37	0x3dedf474	0.11618891
38	0xbc946458	-0.018114254
39	0xbc8e92f0	-0.01740405
40	0xbdb79c04	-0.089653045
41	0x3cab8b78	0.020940527
42	0x3de5571e	0.11198257
43	0x3c437760	0.011930317
44	0xbdacb91c	-0.08433744
45	0x3d95b19c	0.07309267
46	0x3c07d680	0.008290887
47	0xbd4f8934	-0.050667956
48	0xbc8dadf8	-0.017294869
49	0xbd1da3ec	-0.038486406
50	0xbddb15e6	-0.10697536
51	0x3cb2e740	0.021838784
52	0x3ce394e0	0.02778095
53	0x3de610d2	0.11233677
54	0xbd2bb59c	-0.041921243
55	0xbdab47de	-0.08363317
56	0x3d2c37b8	0.042045325
57	0x3da18206	0.07886128
58	0x3d469790	0.048484385
59	0xbdf03d90	-0.11730492
60	0x3d49a9d8	0.04923424
61	0x3d830e68	0.06399232
62	0xbdb4c736	-0.08827059
63	0xbc195e80	-0.009360909
64	0x3db85f5c	0.09002563
65	0xbdb6a69a	-0.089184955
66	0x3ce02fe8	0.027366593
67	0x3c115dc0	0.008872449
68	0xbc4ad5f0	-0.012380108
69	0xbdc2b4e2	-0.09507157
70	0xbcc1c0e0	-0.02365154
71	0xbdd90d46	-0.10598235
72	0xbdc7ce54	-0.09756151
73	0x3ceeabf0	0.02913472
74	0xbdf6570a	-0.1202832
75	0xbdbb05ba	-0.09131952
76	0xbd9af2ca	-0.075658396
77	0x3dbfcd80	0.09365368
78	0x3d4a851c	0.04944335
79	0x3dc70c68	0.09719163
80	0xbdf362ae	-0.11884056
81	0xbdcc2964	-0.09968832
82	0xbd12fe7c	-0.035887226
83	0x3de52524	0.11188725
84	0xbb25b540	-0.0025285035
85	0x3de1303a	0.109955266
86	0xbd656edc	-0.056013927
87	0x3d1ee2ac	0.03879039
88	0xbde3180e	-0.110885724
89	0xbdfdc118	-0.12390345
90	0x3db2a734	0.08723298
91	0xbdf88f5a	-0.12136717
92	0x3d0eef60	0.034896255
93	0x3dea2c90	0.11434281
94	0xbdc2c232	-0.09509696
95	0x3dfeea42	0.12447025
96	0xbd8d1b04	-0.068899184
97	0xbdee3f58	-0.116331756
98	0xbd45ec0c	-0.048320815
99	0xbd96aad2	-0.073568
100	0xbd4d2324	-0.05008234
101	0xbde27bf4	-0.110587984
102	0xbcde91e8	-0.027169183
103	0x3d7954c8	0.06087187
104	0xbbec2f20	-0.007207766
105	0x3da6016e	0.081057414
106	0x3ddf4798	0.10902327
107	0x3bada720	0.005299464
108	0x3d7e2550	0.062047303
109	0x3de0a1c4	0.10968354
110	0x3db8a688	0.09016138
111	0x3dd51de6	0.10406093
112	0xbde62df2	-0.11239232
113	0xbde7ec7e	-0.11324404
114	0xbcfe5830	-0.03104791
115	0x3cec6cb8	0.028860435
116	0xbd951eae	-0.07281242
117	0xbdcbbb96	-0.099478886
118	0x3d4e1e3c	0.050321802
119	0x3c9ac418	0.018892333
120	0x3c4233a0	0.011853129
121	0x3d49c974	0.049264386
122	0xbd354f4c	-0.044265077
123	0x3d3d0574	0.04614778
124	0xbd64fe78	-0.055906743
125	0xbdd1722e	-0.10226856
126	0xbcabc7a0	-0.020969212
127	0x3df14848	0.11781365
128	0x3db35b6a	0.0875767
129	0x3d437ec0	0.0477283
130	0xbde42820	-0.11140466
131	0x3d8c2094	0.06842151
132	0xbdd22f8e	-0.102629766
133	0xbb24fb80	-0.002517432
134	0xbb97cde0	-0.0046326965
135	0xbc15f450	-0.009152487
136	0xbdcea0e0	-0.10089278
137	0x3d318228	0.043337017
138	0x3d030238	0.031984538
139	0xbd5600e4	-0.052246943
140	0x3d9f60d6	0.07782142
141	0x3d300370	0.04297203
142	0xbd23bdc0	-0.03997588
143	0xbdf6c94e	-0.120501146
144	0xbd2c380c	-0.042045638
145	0xbd185a24	-0.03719534
146	0xbcd67fe0	-0.026184022
147	0x3decdf78	0.11566061
148	0x3da08306	0.07837491
149	0xbca22e48	-0.01979746
150	0xbdb62204	-0.08893207
151	0x3d4caf5c	0.049971923
152	0xbd6600d8	-0.05615315
153	0xbde71246	-0.11282782
154	0x3de92ece	0.113858804
155	0xbdb1fba2	-0.08690573
156	0xbdcff1a2	-0.1015351
157	0x3dc7d944	0.09758237
158	0xbd99f22a	-0.07516892
159	0x3bbedee0	0.0058249086
160	0x3d2185b0	0.039434135
161	0x3df2c340	0.11853647
162	0x3d983bf8	0.07433313
163	0x3dbb4cc6	0.09145503
164	0x3db29028	0.08718902
165	0x3d7f6994	0.062356547
166	0x3b108100	0.0022049546
167	0x3d3bbefc	0.045836434
168	0xbc15b3c0	-0.009137094
169	0xbd8dfad8	-0.0693261
170	0x3db39ab0	0.08769739
171	0x3d158524	0.036503926
172	0x3dd202f2	0.10254468
173	0x3d58b348	0.05290535
174	0x3d94013e	0.072267994
175	0xbd0235bc	-0.031789526
176	0xbd27071c	-0.040778264
177	0xb7d3e000	-2.5257468e-05
178	0xbcc0d888	-0.02354075
179	0xbdf2df64	-0.11859015
180	0xbc1f7690	-0.009732857
181	0xbd1257f0	-0.035728395
182	0xbdf82d04	-0.12117961
183	0xbd9f9a98	-0.07793158
184	0x3d3a9fd4	0.04556258
185	0xbdb2ad42	-0.087244526
186	0xbcd4d9c0	-0.025982738
187	0x3bd676c0	0.006544918
188	0xbdcbcef8	-0.099515855
189	0xbcbdc1e0	-0.023163736
190	0xbd894b0e	-0.06703769
191	0xbd489d60	-0.04897821
192	0xbdbfc030	-0.09362829
193	0x3cdc1b08	0.026868358
194	0x3dc8c30c	0.09802827
195	0x3d2fdd64	0.042935744
196	0x3df34b00	0.118795395
197	0x3cd09998	0.025463864
198	0x3dd530c2	0.104096904
199	0x3df97e32	0.12182273
200	0xbdf80510	-0.121103406
201	0xbd8cc842	-0.06874134
202	0xbd404108	-0.04693702
203	0x3dfdf616	0.12400453
204	0xbdd18176	-0.10229771
205	0x3c671530	0.014104173
206	0xbd9573dc	-0.07297489
207	0xbdafe062	-0.085877195
208	0x3d888106	0.06665234
209	0xbdb9e342	-0.09076549
210	0x3c258d10	0.010104433
211	0xbc4b3fc0	-0.012405336
212	0x3dece2f0	0.115667224
213	0x3da464fe	0.08027075
214	0xbd7c0f2c	-0.061537907
215	0x3ded0be2	0.11574532
216	0x3d5b3314	0.05351551
217	0xbda67c90	-0.08129227
218	0x3dba4d9a	0.090968326
219	0xbcc3da68	-0.023907855
220	0xbdd43e20	-0.10363412
221	0x3c577110	0.013149515
222	0xbdf56582	-0.11982252
223	0x3d70e7d0	0.058814824
224	0xbd7ac5dc	-0.06122385
225	0xbd353fa8	-0.04425016
226	0xbdf2cb12	-0.11855139
227	0xbdd4031c	-0.103521556
228	0x3dd2b7f0	0.102889895
229	0x3d78f944	0.060784593
230	0x3cd6f618	0.026240394
231	0x3be49660	0.006975934
232	0x3d8d8ebe	0.069119915
233	0xbd23bd48	-0.039975435
234	0xbd91be76	-0.07116406
235	0x3d777864	0.060417548
236	0xbd5348ec	-0.051583216
237	0x3d9b20c4	0.07574609
238	0x3d4a0ba0	0.049327493
239	0xbd9354ac	-0.07193884
240	0xbcd9f1e0	-0.026604593
241	0xbda7e684	-0.08198264
242	0xbdc7a866	-0.09748916
243	0x3d017904	0.03160955
244	0x3dfeedea	0.12447722
245	0xbc0fe0e0	-0.008781642
246	0x3df75cce	0.12078248
247	0x3ce765f0	0.02824685
248	0x3dd88118	0.10571498
249	0xbcddca70	-0.027074069
250	0x3d8a5608	0.067546904
251	0x3d4fa2b8	0.05069229
252	0xbdea2cba	-0.11434312
253	0x3d1b0a8c	0.037851855
254	0x3c68db10	0.014212385
255	0xbd8e1492	-0.06937517

network.9.bias f4 [26]
0	0xbd94bac2	-0.07262184
1	0xbd8a35d2	-0.06748547
2	0xbdaf9a00	-0.08574295
3	0xbdc3ab24	-0.09554127
4	0x3df0545c	0.1173484
5	0x3ddb3ff6	0.10705559
6	0xbdca329c	-0.09872934
7	0x3db19446	0.08670859
8	0xbc774660	-0.015092462
9	0x3df7198a	0.12065418
10	0xbd9a2bae	-0.075278625
11	0x3be83bc0	0.007087201
12	0xbd6ef2d4	-0.058337048
13	0xbcabcd38	-0.02097188
14	0x3dc28eb0	0.09499872
15	0xbdcc237a	-0.09967704
16	0x3d89d08a	0.06729229
17	0xbdbe3c10	-0.092888
18	0x3d6181b4	0.055055335
19	0x3d2595f4	0.04042621
20	0xbbc5ce80	-0.0060365796
21	0x3d303660	0.043020606
22	0xbdc8bd44	-0.098017246
23	0xbd2067ac	-0.03916137
24	0xbcfe1060	-0.031013668
25	0x3c885f10	0.016646892

network.0.weight f4 [256, 73]
0	0x3db74295	0.089482464
1	0x3dc6f3ff	0.09714507
2	0xbce09ee8	-0.027419522
3	0x3ddc30fd	0.10751531
4	0xbcd213a4	-0.025644131
5	0x3cc17a24	0.023617812
6	0xbd696608	-0.05698207
7	0x3d8cc595	0.06873623
8	0x3dd34e5b	0.103176795
9	0xbdafd9d2	-0.08586468
10	0x3dd058b9	0.101731725
11	0x3cb372d4	0.02190534
12	0x3db117bb	0.08647104
13	0x3c81d9dc	0.015850954
14	0x3d672946	0.056435846
15	0xbc875fc4	-0.016525157
16	0x3db8c813	0.09022536
17	0x3c8db824	0.01729972
18	0xbd5fcda5	-0.054639477
19	0x3cf46594	0.029833592
20	0xbd5ce09c	-0.05392514
21	0xbc60e1f8	-0.01372575
22	0xbd42b668	-0.047537237
23	0x3d9f029d	0.0776417
24	0xbdbd3656	-0.092388794
25	0xbd5d0234	-0.05395718
26	0xbd075ee0	-0.033049464
27	0xbd90200c	-0.070373625
28	0x3c34fd48	0.011046715
29	0xbdecbf38	-0.115599096
30	0x3dd879b9	0.10570092
31	0xbdcb9e26	-0.09942274
32	0x3db90e1f	0.090358965
33	0x3c9f9014	0.019477881
34	0xbd1ba9dc	-0.038003787
35	0x3d941f6f	0.07232558
36	0x3c956e0c	0.018240951
37	0x3dc1ab47	0.09456497
38	0x3c51a1b8	0.012794904
39	0xbd1730a8	-0.036911637
40	0x3d00ce9e	0.031447046
41	0xbd0200ea	-0.031739153
42	0x3d49c262	0.049257644
43	0x3dd6027d	0.10449693
44	0x3d8a8f9f	0.06765675
45	0xbd5194ac	-0.051167175
46	0x3d8a5ed9	0.06756372
47	0x3cab8dfc	0.020941727
48	0x3d7374d6	0.059437595
49	0xbd921939	-0.07133717
50	0xbded4805	-0.11586002
51	0xbd3938b0	-0.045220077
52	0xbdb7db08	-0.08977324
53	0x3dc4aef3	0.096036814
54	0x3d0a1516	0.033711515
55	0x3d4692fe	0.048480026
56	0x3d179da2	0.037015565
57	0xbb056f20	-0.0020360425
58	0x3dbb9767	0.09159737
59	0xbdaa4f70	-0.08315933
60	0x3bf17a90	0.007369347
61	0xbda39ae6	-0.07988529
62	0x3d13d2fa	0.036089875
63	0xbd2518d8	-0.040306896
64	0x3d12e56a	0.035863318
65	0xbcc7c210	-0.024384528
66	0x3dc6ce31	0.09707297
67	0xbd8e1220	-0.06937051
68	0xbd8ef4ee	-0.069803104
69	0xbd8ef724	-0.06980732
70	0x3dd798c1	0.10527182
71	0x3d1fc2c2	0.039004095
72	0x3de6a6d9	0.112622924
73	0xbdc5d1a6	-0.09659128
74	0xbdedc0c3	-0.11609032
75	0xbdbb8866	-0.09156875
76	0xbda13e66	-0.0787323
77	0x3d422d2e	0.047406368
78	0x3d2ba96a	0.041909613
79	0x3dc72c3d	0.09725235
80	0xbd779319	-0.060443018
81	0xbda36810	-0.07978833
82	0x3d7e5c06	0.06209948
83	0xbd41c69e	-0.047308557
84	0x3d917ad5	0.071035065
85	0xbce3862c	-0.02777394
86	0x3d891e9b	0.06695291
87	0xbdba3d4c	-0.09093723
88	0xbd71edeb	-0.059064787
89	0x3d12286e	0.035683088
90	0x3ccab2a4	0.024743386
91	0xbcf47468	-0.029840663
92	0x3d8ee0c5	0.06976465
93	0x3da2f351	0.07956565
94	0xbdadd302	-0.08487512
95	0xbd7fefcc	-0.062484547
96	0x3ddb7c03	0.10717013
97	0xbd21c3ec	-0.039493486
98	0xbd29f492	-0.041493006
99	0xbde7eec5	-0.113248385
100	0xbd8944eb	-0.06702598
101	0x3cef8314	0.029237308
102	0xbc7d1c40	-0.01544863
103	0xbdadfebd	-0.08495853
104	0x3b33ec20	0.0027453974
105	0xbda3bc1e	-0.07994865
106	0xbdcb5c64	-0.099297315
107	0xbd83fe76	-0.06445019
108	0xbdd1c9e0	-0.10243583
109	0xbd98a054	-0.07452455
110	0x3def9b45	0.11699537
111	0x3cb517f4	0.022106148
112	0x3d13bb5e	0.03606736
113	0xbddf908f	-0.10916244
114	0xbd9d6dca	-0.07686956
115	0xbd1f923e	-0.038957827
116	0x3c95edc4	0.018301852
117	0xbdd2ead9	-0.102987
118	0xbd4e8f8e	-0.050429873
119	0xbd8f8043	-0.07006886
120	0x39aa0e00	0.00032435358
121	0xbd3262f0	-0.043551385
122	0xbc04e1b8	-0.008110456
123	0xbda26d93	-0.07931056
124	0xbda48774	-0.08033648
125	0xbd8bd771	-0.068282016
126	0xbd2418fa	-0.040062882
127	0xbdbd30db	-0.09237834
128	0x3dc8fb41	0.09813548
129	0xbcbe499c	-0.023228459
130	0x3dce3cc1	0.10070182
131	0x3d155f66	0.036467932
132	0xbdcafa3b	-0.09911009
133	0x3da5e18b	0.080996595
134	0xbd03e792	-0.032203265
135	0xbd37c448	-0.044864923
136	0xbdc6f7d7	-0.097152404
137	0xbdee4cf3	-0.11635771
138	0x3d09295e	0.033486716
139	0xbcd171b8	-0.02556692
140	0x3d3aa446	0.04556682
141	0xbdc4b698	-0.096051395
142	0x3db1f5e1	0.08689476
143	0xbdaff3f0	-0.08591449
144	0xbca58f34	-0.020209886
145	0x3cc843b4	0.024446346
146	0x3d777dce	0.06042271
147	0x3dc18333	0.094488524
148	0x3dda5b71	0.10661972
149	0xbdbe104c	-0.09280452
150	0x3cf14c84	0.02945543
151	0xbd4e33de	-0.050342433
152	0xbc5223d8	-0.012825929
153	0xbdb369cd	-0.08760414
154	0x3dda5543	0.10660794
155	0xbdafed9a	-0.08590241
156	0x3d801bad	0.06255279
157	0x3d287af6	0.04113289
158	0x3d1bc8b6	0.03803321
159	0xbd8197d2	-0.063277856
160	0x3dd9e03d	0.10638473
161	0x3cd2b26c	0.025719844
162	0x3c76ae38	0.015056185
163	0xbdd33cad	-0.10314307
164	0x3d493f2e	0.04913252
165	0xbc8fd704	-0.017558582
166	0xbd5ba002	-0.053619392
167	0x3dcde3c5	0.10053209
168	0x3cd5c374	0.026094176
169	0xbd849eda	-0.06475611
170	0xbd72a4ae	-0.059239082
171	0xbbb72720	-0.005589381
172	0x3d85d6df	0.06535124
173	0xbcf50190	-0.029907972
174	0xbd88c457	-0.06678074
175	0xbd242ad4	-0.040079907
176	0xbdb312f4	-0.087438494
177	0x3d2af846	0.04174068
178	0x3db989a3	0.09059455
179	0xbde1a9dc	-0.11018726
180	0x3cdeaea4	0.027182885
181	0x3d77a786	0.060462497
182	0x3caddbdc	0.021223001
183	0xbd2ab9f2	-0.041681238
184	0x3d7a3826	0.061088704
185	0x3d7bee6a	0.061506666
186	0x3d3342ca	0.043764867
187	0xbca87b5c	-0.020566635
188	0xbcfde448	-0.030992642
189	0x3c4d2598	0.01252117
190	0xbca9604c	-0.0206758
191	0xbd0edca4	-0.034878388
192	0x3d9937d3	0.07481351
193	0x3dcdff91	0.10058511
194	0xbc3dd668	-0.011586763
195	0xbcd6ac2c	-0.026205145
196	0x3adfdb80	0.0017078966
197	0xbbe4fe50	-0.006988324
198	0x3ce681b4	0.02813802
199	0x3d06581a	0.032798864
200	0xbdd9b59b	-0.106303416
201	0xbd30eaba	-0.043192603
202	0x3dc9dbd1	0.0985638
203	0x3d3ac0ba	0.045593955
204	0xbbbec0f0	-0.00582134
205	0xbd908444	-0.07056478
206	0xbd92a65c	-0.07160637
207	0xbdd6b72f	-0.10484158
208	0xbd1c443e	-0.03815102
209	0x3d21e542	0.039525278
210	0x3d98d68d	0.07462797
211	0x3d5d5686	0.054037593
212	0xbdd3e1b2	-0.10345782
213	0xbd902591	-0.07038415
214	0xbc975094	-0.01847104
215	0x3de7dfbb	0.1132197
216	0x3c8ab2a4	0.016930886
217	0xbcf84d2c	-0.030310236
218	0x3d4655d6	0.048421703
219	0xbd369846	-0.044578813
220	0xbd9b25b9	-0.075755544
221	0x3daef445	0.085426845
222	0xbd59fbfa	-0.05321882
223	0xbcc03530	-0.023462862
224	0xbdee7471	-0.11643303
225	0x3da06ca3	0.07833221
226	0x3db59af1	0.08867443
227	0x3d2eb776	0.04265543
228	0xbda72306	-0.08160977
229	0xbdec91dc	-0.11551258
230	0xbdc2adf5	-0.09505836
231	0x3db2be9b	0.08727761
232	0x3d6629b6	0.056192122
233	0x3dc9b577	0.09849065
234	0x3d7b24be	0.061314337
235	0x3cf2aa44	0.029622205
236	0xba963a40	-0.0011461452
237	0xbdb64b23	-0.0890105
238	0xbdcd5e58	-0.1002776
239	0xbde0340d	-0.10947428
240	0x3d443f92	0.047912188
241	0xbd6b5ecd	-0.057463456
242	0xbcc0f610	-0.023554832
243	0xbd89f2e2	-0.06735779
244	0xbcaeb754	-0.021327652
245	0xbda8b59c	-0.08237764
246	0xbd9c9fb9	-0.07647652
247	0x3d1f05ba	0.03882382
248	0xbd0e79e2	-0.034784205
249	0x3d93fa33	0.07225456
250	0xbd19cbc0	-0.037547827
251	0xbdafd616	-0.085857555
252	0xbca92b7c	-0.020650618
253	0xbd68635f	-0.056735393
254	0xbd12ab26	-0.03580775
255	0xbde43190	-0.11142266
